cbamultiriskv1/assets/fire_model.tflite (tflite, 1960 bytes, 4 tensors)

arith.constant f4 [3, 8]
000000 65 bb 2b 40 25 59 aa c0 5d 15 97 3f 11 34 93 c0
       2.6833127 -5.323382 1.1803395 -4.600106
000010 6d 63 df be 94 aa f8 be 8e 18 ae c0 d8 15 fd 3f
       -0.43630543 -0.4856764 -5.4404974 1.9772291
000020 02 c6 a9 3d 2d 66 5a 3f 32 51 e2 3f 39 2b 93 3f
       0.0828972 0.8531216 1.7681029 1.1497566
000030 99 e9 81 be 5f b2 0b 3f 67 fd 7a 3f 20 cb a3 be
       -0.25373533 0.5456905 0.9804291 -0.3199091
000040 3a c7 80 c0 c7 02 18 40 b6 40 fc bf d0 7b a7 3f
       -4.0243196 2.3751695 -1.9707248 1.308466
000050 ac cc 04 bf c1 97 83 be c8 80 1c 40 1a 7f 6d c0
       -0.51874804 -0.25701717 2.4453602 -3.7108827

arith.constant1 f4 [3]
000000 93 89 a1 3e 65 ff 93 3d 2f 8f da be
       0.31550273 0.07226447 -0.42687365

sequential_1_1/dense_2_1/BiasAdd/ReadVariableOp f4 [8]
000000 6d 32 16 3f 8b 22 01 3e ea 1a 96 3e 29 e4 4a 3e
       0.58670694 0.12610833 0.2931741 0.19813599
000010 97 0f 39 be 00 00 00 00 a4 ed a8 3e 04 90 9f 3e
       -0.18072353 0.0 0.32993805 0.31164563

sequential_1_1/dense_2_1/MatMul f4 [8, 3]
000000 ac 17 d6 bf ec c1 26 40 a4 ea 92 c0 b8 9e 22 40
       -1.6725974 2.605586 -4.5911427 2.5409374
000010 ec ef c6 bf 58 c6 04 40 aa e3 95 bf 1d 84 ea 3c
       -1.5541968 2.074606 -1.1710103 0.02862745
000020 93 04 df 3f 20 69 e5 3f 4e 6a a3 bf 0a 1d c1 3f
       1.7423271 1.7922707 -1.2766817 1.5086987
000030 64 f5 05 3e 46 28 5d bf db d5 08 3e 50 d8 04 bd
       0.1308189 -0.8638958 0.1336283 -0.032432854
000040 00 6f 79 bc f1 73 27 bf 66 c7 20 40 f7 81 ea bf
       -0.015224218 -0.6541129 2.5121703 -1.8320912
000050 9c 94 f6 3f f7 59 e3 bf 71 51 ee 3f 4a d5 76 be
       1.9264102 -1.776183 1.8618604 -0.24104801
