cbamultiriskv2/assets/fire_model.tflite (tflite, 1964 bytes, 4 tensors)

arith.constant f4 [3, 8]
000000 d1 1c 35 bf 71 83 05 40 a4 48 6b 40 60 88 9a 3d
       -0.70747095 2.0861475 3.6763086 0.07545543
000010 16 30 c2 3e 81 b5 69 c0 3b 72 f1 be 1b d1 c5 3d
       0.37927312 -3.6517031 -0.47157463 0.09659024
000020 b1 4f 4a 3d 52 23 d8 be f3 33 6d c0 0b eb 89 be
       0.049392406 -0.42214447 -3.7062957 -0.26937136
000030 13 50 70 3f 74 d9 c4 be 44 a6 e6 be 5f 82 11 3f
       0.93872184 -0.38447154 -0.45048726 0.56839556
000040 58 73 2d bf 49 98 6d c0 6e e4 45 c0 b6 3a 27 3e
       -0.67754126 -3.7124197 -3.0920672 0.1633099
000050 bf 42 bd bf b0 2f a4 3f 6c 8c db 3d 3d c7 b5 bf
       -1.4785994 1.2827053 0.10720143 -1.4201428

sequential_1/dense_1_2/BiasAdd/ReadVariableOp f4 [3]
000000 4f 7e be be c6 dd fd 3e 8b 67 e7 bd
       -0.3720574 0.49583262 -0.11299046

sequential_1/dense_1/BiasAdd/ReadVariableOp f4 [8]
000000 59 28 c8 bb e4 13 69 3e 04 bf cd 3d 17 3f 0f be
       -0.0061083254 0.22761494 0.10046199 -0.1398891
000010 c4 ba a4 3e e1 7a 20 3f 14 be 33 bc 1d 44 10 3e
       0.3217374 0.626875 -0.010970611 0.14088483

sequential_1/dense_1/MatMul f4 [8, 3]
000000 ba ca 27 bf a9 3c ab 3d 89 46 36 be 6b c1 ca bf
       -0.6554371 0.083611794 -0.17800345 -1.5840276
000010 5b 00 17 40 a1 c2 07 c0 d5 ef 05 c0 50 71 f2 3f
       2.3593967 -2.1212542 -2.0927632 1.894083
000020 0f ee 08 c0 6c 59 08 bf 83 fe 6e bf 57 e7 ba 3e
       -2.13953 -0.53261447 -0.93357104 0.36504623
000030 bc fe ec be cf 82 bc 3f f8 5a 66 be 6b ab 36 40
       -0.46288097 1.472742 -0.2249564 2.8542125
000040 cf f2 bd bf e0 e2 d7 3f 14 5e 19 bf c1 a8 b7 3d
       -1.4839724 1.6866112 -0.59909177 0.08967734
000050 20 1a fd be 4b 0b 6e bf 20 43 d5 3c 31 dd 98 3f
       -0.49433994 -0.9298598 0.026032984 1.1942502
